best_lstm_quantized.tflite (tflite, 109440 bytes, 7 tensors)

tfl.pseudo_qconst1 i1 [1, 32] scale=0.012923744 zero_point=0
-1.0209757 0.6849584 1.5896205 1.3569931 0.7237296 0.5169498 1.6413155 0.5815685
-0.6203397 -0.4135598 -0.3877123 0.504026 0.5298735 0.5944922 0.3618648 -0.37478855
-0.45233104 -0.6332634 -0.5298735 0.8529671 0.7883484 -0.5169498 -0.5686447 -0.5686447
-0.4135598 0.5169498 -0.9951283 -0.9951283 -0.49110225 -1.0985183 -0.607416 0.9046621
00000000: b135 7b69 3828 7f2d d0e0 e227 292e 1ce3
00000010: ddcf d742 3dd8 d4d4 e028 b3b3 daab d146

tfl.pseudo_qconst4 i1 [384] scale=0.007099609 zero_point=-20
-0.3975781 0.5466699 -0.04969726 0.326582 0.2413867 -0.5111718 0.9584472 0.035498045
-0.26978514 0.6318652 0.028398436 0.0780957 0.22008787 -0.19168945 -0.50407225 -0.3123828
0.028398436 0.6247656 0.60346675 0.028398436 -0.106494136 -0.3194824 -0.04259765 0.19168945
0.29818356 -0.5466699 -0.13489257 0.5111718 0.40467772 1.0223436 0.163291 -0.35498044
0.2555859 0.43307614 -0.0780957 0.34788084 0.45437497 0.83775383 0.9726464 -0.18458983
-0.5750683 0.29108396 0.14909178 0.1703906 -0.3123828 0.3407812 0.7312597 -0.18458983
-0.1561914 0.29818356 0.97974604 -0.5253711 -0.19878905 -0.55376947 0.5395703 0.44727537
0.0 0.11359374 -0.3975781 -0.14909178 -0.41887692 0.19878905 0.53247064 0.8661523
0.09229492 0.75965816 1.0223436 0.05679687 0.6318652 0.653164 0.5395703 0.83065426
0.2413867 0.35498044 0.7880566 0.14909178 -0.3975781 0.34788084 -0.7667578 0.41177732
0.653164 0.3833789 -0.21298827 0.44727537 0.29108396 -0.2342871 -0.1703906 0.50407225
0.46147457 0.77385736 -0.22008787 0.41177732 0.21298827 0.014199218 -0.3904785 0.22008787
1.0010449 1.0010449 1.0010449 1.0010449 1.0010449 1.0010449 1.0010449 1.0010449
1.0010449 1.0010449 1.0010449 1.0010449 1.0010449 1.0010449 1.0010449 1.0010449
1.0010449 1.0010449 1.0010449 1.0010449 1.0010449 1.0010449 1.0010449 1.0010449
1.0010449 1.0010449 1.0010449 1.0010449 1.0010449 1.0010449 1.0010449 1.0010449
1.0010449 1.0010449 1.0010449 1.0010449 1.0010449 1.0010449 1.0010449 1.0010449
1.0010449 1.0010449 1.0010449 1.0010449 1.0010449 1.0010449 1.0010449 1.0010449
1.0010449 1.0010449 1.0010449 1.0010449 1.0010449 1.0010449 1.0010449 1.0010449
1.0010449 1.0010449 1.0010449 1.0010449 1.0010449 1.0010449 1.0010449 1.0010449
1.0010449 1.0010449 1.0010449 1.0010449 1.0010449 1.0010449 1.0010449 1.0010449
1.0010449 1.0010449 1.0010449 1.0010449 1.0010449 1.0010449 1.0010449 1.0010449
1.0010449 1.0010449 1.0010449 1.0010449 1.0010449 1.0010449 1.0010449 1.0010449
1.0010449 1.0010449 1.0010449 1.0010449 1.0010449 1.0010449 1.0010449 1.0010449
0.14199218 0.22008787 0.19168945 -0.22008787 -0.18458983 -0.14909178 0.29108396 -0.21298827
-0.11359374 -0.20588866 0.22008787 -0.19168945 0.19168945 -0.18458983 -0.021298826 -0.021298826
-0.18458983 -0.20588866 -0.19168945 0.22008787 -0.26268554 0.09939452 0.19878905 -0.19878905
-0.18458983 -0.021298826 0.163291 0.19168945 0.19878905 -0.21298827 -0.14909178 -0.04969726
0.2413867 0.22008787 0.09229492 0.20588866 0.20588866 -0.21298827 -0.20588866 0.0851953
-0.07099609 0.1561914 0.19168945 -0.21298827 0.18458983 -0.22008787 0.22718748 0.13489257
-0.09939452 0.22008787 0.24848631 -0.06389648 0.2413867 0.13489257 -0.24848631 -0.18458983
-0.19878905 -0.19168945 -0.1703906 -0.2342871 0.007099609 0.1561914 -0.22008787 0.20588866
00000000: b439 e51a 0ea4 73f1 c645 f0f7 0bd1 a5c0
00000010: f044 41f0 ddbf e607 169f d934 257c 03ba
00000020: 1029 e11d 2c62 75d2 9b15 0104 c01c 53d2
00000030: d616 76a2 d09e 382b ecfc b4d7 b108 3766
00000040: f957 7cf4 4548 3861 0e1e 5b01 b41d 8026
00000050: 4822 ce2b 15cb d433 2d59 cd26 0aee b50b
00000060: 7979 7979 7979 7979 7979 7979 7979 7979
00000070: 7979 7979 7979 7979 7979 7979 7979 7979
00000080: 7979 7979 7979 7979 7979 7979 7979 7979
00000090: 7979 7979 7979 7979 7979 7979 7979 7979
000000a0: 7979 7979 7979 7979 7979 7979 7979 7979
000000b0: 7979 7979 7979 7979 7979 7979 7979 7979
000000c0: 000b 07cd d2d7 15ce dccf 0bd1 07d2 e9e9
000000d0: d2cf d10b c7fa 08d0 d2e9 0307 08ce d7e5
000000e0: 0e0b f909 09ce cff8 e202 07ce 06cd 0cff
000000f0: de0b 0fe3 0eff c9d2 d0d1 d4cb ed02 cd09

tfl.pseudo_qconst5 i1 [384, 45]
8 2 0 -10 12 8 1 11
13 39 3 1 48 75 28 28
48 23 5 100 23 55 53 25
62 21 19 44 127 78 21 4
58 21 34 89 45 11 7 5
37 -6 52 7 44 39 22 5
-11 20 -4 4 -38 -75 -17 -30
-42 33 101 -6 -54 -60 6 -63
-26 -51 46 56 10 47 -49 -57
17 -33 -127 36 -70 11 1 25
47 46 -54 -69 -63 1 -29 38
-5 52 113 102 -6 10 127 43
14 22 -8 54 -4 1 6 66
19 10 0 12 7 82 -21 21
44 3 10 -4 8 16 38 28
9 25 -3 -11 18 35 -2 7
6 -13 18 17 14 0 20 -107
-114 17 -1 -107 4 11 -35 2
-51 -70 16 31 47 -65 -13 -59
7 11 -78 -33 8 0 -59 16
-61 -61 -13 -113 -127 6 -71 1
1 8 -12 29 -35 -10 6 -12
-22 -8 -24 34 -14 31 8 3
19 13 -7 -45 31 -90 -22 -24
41 86 -51 -9 -53 24 -49 -74
-3 54 42 -44 30 -42 -42 17
-127 -75 54 -26 -50 24 40 -4
46 -43 -31 -29 5 -19 39 13
49 127 115 27 -10 113 -5 -29
1 49 -16 119 113 29 26 7
17 77 -19 117 100 36 44 49
95 22 79 109 41 42 33 56
00000000: 0802 00f6 0c08 010b 0d27 0301 304b 1c1c
00000010: 3017 0564 1737 3519 3e15 132c 7f4e 1504
00000020: 3a15 2259 2d0b 0705 25fa 3407 2c27 1605
00000030: f514 fc04 dab5 efe2 d621 65fa cac4 06c1
00000040: e6cd 2e38 0a2f cfc7 11df 8124 ba0b 0119
00000050: 2f2e cabb c101 e326 fb34 7166 fa0a 7f2b
00000060: 0e16 f836 fc01 0642 130a 000c 0752 eb15
00000070: 2c03 0afc 0810 261c 0919 fdf5 1223 fe07
00000080: 06f3 1211 0e00 1495 8e11 ff95 040b dd02
00000090: cdba 101f 2fbf f3c5 070b b2df 0800 c510
000000a0: c3c3 f38f 8106 b901 0108 f41d ddf6 06f4
000000b0: eaf8 e822 f21f 0803 130d f9d3 1fa6 eae8
000000c0: 2956 cdf7 cb18 cfb6 fd36 2ad4 1ed6 d611
000000d0: 81b5 36e6 ce18 28fc 2ed5 e1e3 05ed 270d
000000e0: 317f 731b f671 fbe3 0131 f077 711d 1a07
000000f0: 114d ed75 6424 2c31 5f16 4f6d 292a 2138

tfl.pseudo_qconst6 i1 [384, 96]
-33 -49 -69 93 58 39 -11 -18
-11 35 15 -46 -12 0 22 -21
-17 -36 31 -9 -65 32 -64 40
-44 31 -44 16 29 12 -16 -40
6 -25 -47 25 -50 44 53 26
27 66 5 -13 66 -46 -32 -41
34 92 -29 44 28 -32 65 27
-4 36 -50 -20 -75 21 127 11
49 -36 -73 21 -63 33 69 -78
-55 -125 50 31 8 -30 -37 9
28 -34 -24 0 31 0 -15 -84
-33 -47 -15 14 -30 -18 30 -69
-32 -84 9 45 33 -30 68 -51
-44 -37 12 127 33 39 62 55
-126 121 47 42 117 57 45 -7
-42 -71 -73 -5 -55 -43 12 -49
23 -49 -32 -124 -97 -52 -16 -48
60 -9 123 10 -9 60 5 -38
-59 70 35 -73 66 -63 -53 16
79 94 17 14 0 -53 -77 -110
33 78 -18 -16 -42 -1 40 27
30 -101 57 -113 19 -1 -7 -114
15 -2 6 -33 87 60 -90 -15
-56 96 -98 -40 46 29 -85 2
-62 -1 28 -20 -26 61 29 26
-88 -43 28 21 -97 48 40 -4
14 -24 9 -21 -50 65 -18 16
39 -27 61 -32 -27 -3 -70 -8
-3 -88 85 -63 -35 -51 -73 -16
-19 40 72 20 123 -13 -2 -6
9 26 -10 -25 43 26 -41 -36
-39 7 -42 -18 20 -120 58 -91
00000000: dfcf bb5d 3a27 f5ee f523 0fd2 f400 16eb
00000010: efdc 1ff7 bf20 c028 d41f d410 1d0c f0d8
00000020: 06e7 d119 ce2c 351a 1b42 05f3 42d2 e0d7
00000030: 225c e32c 1ce0 411b fc24 ceec b515 7f0b
00000040: 31dc b715 c121 45b2 c983 321f 08e2 db09
00000050: 1cde e800 1f00 f1ac dfd1 f10e e2ee 1ebb
00000060: e0ac 092d 21e2 44cd d4db 0c7f 2127 3e37
00000070: 8279 2f2a 7539 2df9 d6b9 b7fb c9d5 0ccf
00000080: 17cf e084 9fcc f0d0 3cf7 7b0a f73c 05da
00000090: c546 23b7 42c1 cb10 4f5e 110e 00cb b392
000000a0: 214e eef0 d6ff 281b 1e9b 398f 13ff f98e
000000b0: 0ffe 06df 573c a6f1 c860 9ed8 2e1d ab02
000000c0: c2ff 1cec e63d 1d1a a8d5 1c15 9f30 28fc
000000d0: 0ee8 09eb ce41 ee10 27e5 3de0 e5fd baf8
000000e0: fda8 55c1 ddcd b7f0 ed28 4814 7bf3 fefa
000000f0: 091a f6e7 2b1a d7dc d907 d6ee 1488 3aa5

tfl.pseudo_qconst7 i1 [128] scale=0.004877912 zero_point=-78
-0.009755824 0.4536458 -0.16097109 0.18048275 0.33657593 0.38047713 -0.04877912 0.2097502
0.029267471 0.41462252 0.3755992 0.2829189 0.3170643 0.117069885 0.39023295 0.3658434
0.26828516 0.21462813 0.2097502 0.16097109 0.09268033 0.21462813 0.3170643 0.2536514
0.25852934 0.13170362 0.35120964 0.009755824 0.17072691 -0.24389559 0.17560482 -0.0829245
0.9999719 0.9999719 0.9999719 0.9999719 0.9999719 0.9999719 0.9999719 0.9999719
0.9999719 0.9999719 0.9999719 0.9999719 0.9999719 0.9999719 0.9999719 0.9999719
0.9999719 0.9999719 0.9999719 0.9999719 0.9999719 0.9999719 0.9999719 0.9999719
0.9999719 0.9999719 0.9999719 0.9999719 0.9999719 0.9999719 0.9999719 0.9999719
-0.15121527 0.06829077 0.17560482 0.039023295 0.07316868 0.165849 0.14633736 0.08780241
-0.121947795 -0.053657033 -0.10243615 0.112191975 0.009755824 0.15609318 0.107314065 -0.15609318
-0.04877912 -0.121947795 -0.10243615 0.121947795 0.14145945 -0.15609318 -0.07316868 -0.14633736
-0.121947795 0.13170362 -0.06341285 -0.13170362 -0.08780241 -0.17072691 -0.09268033 0.117069885
0.039023295 0.46340162 -0.053657033 0.2048723 0.30243054 0.33657593 0.019511648 0.14145945
0.112191975 0.34633175 0.3609655 0.2097502 0.21462813 0.112191975 0.30243054 0.32194218
0.2048723 0.19023857 0.165849 0.13658154 0.13658154 0.14633736 0.2487735 0.2829189
0.23901768 0.17072691 0.3268201 0.014633736 0.1268257 -0.17072691 0.107314065 -0.034145385
00000000: b00f 91d7 f700 a8dd b807 ffec f3ca 02fd
00000010: e9de ddd3 c5de f3e6 e7cd fab4 d580 d6a1
00000020: 7f7f 7f7f 7f7f 7f7f 7f7f 7f7f 7f7f 7f7f
00000030: 7f7f 7f7f 7f7f 7f7f 7f7f 7f7f 7f7f 7f7f
00000040: 93c0 d6ba c1d4 d0c4 99a7 9dc9 b4d2 c892
00000050: a899 9dcb cf92 a394 99cd a597 a08f 9fca
00000060: ba11 a7dc f0f7 b6cf c9f9 fcdd dec9 f0f4
00000070: dcd9 d4ce ced0 e5ec e3d5 f5b5 cc8f c8ab

tfl.pseudo_qconst8 i1 [128, 96]
-54 -1 4 -26 -38 -12 91 -10
26 4 25 -6 19 4 28 -11
-2 21 -3 11 -7 -29 -7 33
-24 55 -7 26 19 -127 0 -12
13 23 -9 59 4 -57 -82 2
51 14 27 -2 -32 -34 63 11
25 25 102 63 17 -12 -40 -23
-1 6 55 -9 -18 -17 -32 52
27 16 125 19 -78 -33 9 45
-12 -38 69 31 -47 29 12 -31
-34 -29 38 55 -32 -30 -15 -53
10 -84 85 -30 -22 12 -75 -30
-37 62 -7 -40 -28 10 98 -38
19 -44 21 -27 9 -22 42 -18
-8 -34 -37 23 -20 -5 24 -42
-30 48 13 43 48 -127 -5 -19
29 31 35 43 65 -87 -76 24
2 27 27 -30 -39 -44 61 50
-6 30 82 17 11 -4 -24 -24
-22 -48 52 -26 -24 48 -45 91
32 70 110 22 -34 -51 78 71
33 -33 82 21 -25 32 2 -25
-55 -43 8 51 -3 11 -5 -65
39 -64 26 -38 -44 46 15 -14
-58 24 5 -53 -38 -19 90 -7
70 -7 -5 -36 18 0 24 -15
0 33 -28 2 -18 -28 5 14
-45 74 -30 46 33 -127 -9 -29
19 64 -3 66 6 -93 -79 -12
62 2 20 -13 -63 -34 49 17
43 35 111 85 10 -2 -53 -32
3 -10 68 9 -30 -7 -21 69
00000000: caff 04e6 daf4 5bf6 1a04 19fa 1304 1cf5
00000010: fe15 fd0b f9e3 f921 e837 f91a 1381 00f4
00000020: 0d17 f73b 04c7 ae02 330e 1bfe e0de 3f0b
00000030: 1919 663f 11f4 d8e9 ff06 37f7 eeef e034
00000040: 1b10 7d13 b2df 092d f4da 451f d11d 0ce1
00000050: dee3 2637 e0e2 f1cb 0aac 55e2 ea0c b5e2
00000060: db3e f9d8 e40a 62da 13d4 15e5 09ea 2aee
00000070: f8de db17 ecfb 18d6 e230 0d2b 3081 fbed
00000080: 1d1f 232b 41a9 b418 021b 1be2 d9d4 3d32
00000090: fa1e 5211 0bfc e8e8 ead0 34e6 e830 d35b
000000a0: 2046 6e16 decd 4e47 21df 5215 e720 02e7
000000b0: c9d5 0833 fd0b fbbf 27c0 1ada d42e 0ff2
000000c0: c618 05cb daed 5af9 46f9 fbdc 1200 18f1
000000d0: 0021 e402 eee4 050e d34a e22e 2181 f7e3
000000e0: 1340 fd42 06a3 b1f4 3e02 14f3 c1de 3111
000000f0: 2b23 6f55 0afe cbe0 03f6 4409 e2f9 eb45

tfl.pseudo_qconst9 i1 [128, 32]
-32 20 14 37 19 127 -50 13
-79 43 -9 -7 32 -24 -56 -52
-12 -49 -18 -14 -10 -7 10 -9
-30 -57 -58 35 -55 -71 84 10
83 5 -127 -1 5 76 -54 -75
112 5 35 -55 113 -6 41 -54
121 58 -15 1 -9 86 68 68
-20 -8 110 -67 -48 47 31 56
43 41 52 -26 -11 20 64 30
80 38 50 -49 92 26 41 111
4 -116 6 30 -8 -108 -26 -80
14 -13 47 56 -47 -127 31 -86
-5 13 19 3 35 -8 33 31
-127 17 63 8 -63 -98 -82 -17
9 11 -21 22 4 55 -29 7
-36 29 -31 -83 -40 -18 33 3
-58 38 54 -11 -84 -45 -100 105
79 -64 -114 79 78 51 -79 -4
-98 127 -19 -3 -81 -72 39 -85
-42 76 -52 -1 50 63 -44 58
79 -28 -63 16 -78 -95 -96 -80
-59 -71 16 -58 -24 -61 -25 35
-79 15 32 -45 82 127 47 8
50 -76 37 57 -7 -59 7 -83
1 -43 -50 -57 6 14 48 36
10 2 -62 28 -22 81 -69 -43
69 -65 -21 -15 -38 81 40 49
-16 127 -6 36 21 -27 51 47
-64 -93 6 -72 41 99 47 14
127 73 -16 -2 2 30 -95 -14
-39 107 42 -13 23 -38 92 79
33 10 -30 -10 -81 -47 79 -75
00000000: e014 0e25 137f ce0d b12b f7f9 20e8 c8cc
00000010: f4cf eef2 f6f9 0af7 e2c7 c623 c9b9 540a
00000020: 5305 81ff 054c cab5 7005 23c9 71fa 29ca
00000030: 793a f101 f756 4444 ecf8 6ebd d02f 1f38
00000040: 2b29 34e6 f514 401e 5026 32cf 5c1a 296f
00000050: 048c 061e f894 e6b0 0ef3 2f38 d181 1faa
00000060: fb0d 1303 23f8 211f 8111 3f08 c19e aeef
00000070: 090b eb16 0437 e307 dc1d e1ad d8ee 2103
00000080: c626 36f5 acd3 9c69 4fc0 8e4f 4e33 b1fc
00000090: 9e7f edfd afb8 27ab d64c ccff 323f d43a
000000a0: 4fe4 c110 b2a1 a0b0 c5b9 10c6 e8c3 e723
000000b0: b10f 20d3 527f 2f08 32b4 2539 f9c5 07ad
000000c0: 01d5 cec7 060e 3024 0a02 c21c ea51 bbd5
000000d0: 45bf ebf1 da51 2831 f07f fa24 15e5 332f
000000e0: c0a3 06b8 2963 2f0e 7f49 f0fe 021e a1f2
000000f0: d96b 2af3 17da 5c4f 210a e2f6 afd1 4fb5
